Chapter09/cnn_weights.pt (torch_old, 510855 bytes, 12 tensors)

conv1.weight f4 [8, 3, 3, 3]
0.011547385 0.2158138 -0.101156496 -0.05721219 -0.15251653 0.16113988 0.09386865 0.18695095
-0.010331492 0.053587522 0.14527333 0.22695732 -0.16419192 -0.11966223 -0.058429476 0.030568914
0.15042369 -0.03297822 0.1044007 -0.04145957 -0.065207765 -0.33261842 -0.10412562 -0.16091827
-0.082992986 0.15714434 -0.2627936 0.26176706 0.21793613 -0.044165064 0.26792756 0.20940018
0.117383234 0.21666482 0.12464287 -0.040097672 0.030623391 -0.1778378 -0.103583336 0.1014573
-0.25667807 -0.15124224 -0.17250566 -0.25925484 0.038893487 0.05704126 -0.096974105 0.1496758
-0.03366686 -0.1600564 -0.10527705 -0.018143995 0.10720238 -0.12050119 -0.10720719 0.16732623
0.08038164 0.07710691 0.05505223 -0.10935478 -0.06061039 -0.07637003 -0.06568898 0.1291652
0.18393579 -0.14701198 -0.06005539 0.2397743 -0.036710173 -0.10467535 0.21493736 0.051582646
0.028631495 -0.059947032 -0.07885086 0.09956486 0.10294785 0.038241576 0.06133642 0.13280213
0.04898439 0.08672319 0.2392428 0.062218662 0.24719898 -0.016255908 0.011594973 0.082831316
-0.04901121 -0.03787216 0.033450942 0.17125121 -0.0134243 -0.22806334 -0.18202147 -0.20447485
-0.29391688 -0.31427535 -0.38919106 0.22968552 -0.06306692 0.06524781 -0.12100182 0.027264185
-0.1680162 0.09189924 -0.1621021 -0.0735656 -0.105612926 0.05198394 -0.037093513 0.09746741
0.13684677 -0.17641735 -0.07018196 0.10344399 -0.2745719 -0.14466654 0.08209083 -0.20361961
-0.08281891 -0.115653016 0.10205221 0.018618204 0.027780721 -0.22192712 0.10497224 0.13801947
0.092821755 -0.14192538 0.08924303 -0.09528582 0.20506531 0.260468 -0.15969512 -0.09287524
-0.12408529 0.27571052 -0.018078467 -0.08728188 0.061296433 -0.2604161 -0.21013339 -0.036262155
0.07356418 0.039327085 0.09919354 -0.030852245 0.0012865805 0.2184089 -0.028220301 -0.022668764
0.30502293 -0.16536047 -0.058711518 0.114340454 -0.17378095 -0.13512084 -0.050364826 0.10407318
-0.15152174 -0.06177147 -0.009354822 -0.04367504 0.109681524 0.08678258 -0.17244978 -0.25738513
-0.29214054 -0.23452902 -0.30848637 0.16132222 0.1938915 0.16506022 0.13227414 -0.048234377
-0.16215236 -0.031455405 0.070360795 -0.044250805 0.14351098 -0.044099685 0.17417328 0.07230976
-0.15317358 0.18400769 -0.06728686 0.057202768 0.08850441 0.19705677 -0.07809791 0.020067597
-0.018941896 -0.21694344 -0.07994012 0.07692164 0.11026935 -0.19150177 0.1386186 -0.29708424
-0.3141239 0.1395466 -0.2830188 -0.032542598 0.2279328 0.08043815 -0.44547042 0.10392667
-0.04335105 0.06882503 0.07110795 0.0827369 0.010724375 0.2153437 -0.11312317 -0.21394782
00000000: 3e31 3d3c 4bfe 5c3e 232b cfbd 5457 6abd
00000010: 4b2d 1cbe da01 253e 353e c03d 1270 3f3e
00000020: 6b45 29bc 977e 5b3d 88c2 143e 8067 683e
00000030: ed21 28be 7911 f5bd bf53 6fbd a96b fa3c
00000040: ab08 1a3e 2c14 07bd 09d0 d53d 83d1 29bd
00000050: a68b 85bd f64c aabe d03f d5bd c2c7 24be
00000060: 3af8 a9bd 72ea 203e e28c 86be 5506 863e
00000070: a62a 5f3e 6de6 34bd cd2d 893e 006d 563e
00000080: 9f66 f03d 62dd 5d3e c344 ff3d 753d 24bd
00000090: e8dd fa3c 1d1b 36be 8023 d4bd d8c8 cf3d
000000a0: 4f6b 83be 3fdf 1abe 53a5 30be 0dbd 84be
000000b0: c74e 1f3d 19a4 693d 5c9a c6bd 9d44 193e
000000c0: 43e6 09bd d3e5 23be 7e9b d7bd b7a2 94bc
000000d0: ec8c db3d 54c9 f6bd 718f dbbd 9157 2b3e
000000e0: 219f a43d 3aea 9d3d 727e 613d 66f5 dfbd
000000f0: 9a42 78bd e467 9cbd f287 86bd e243 043e
00000100: aa59 3c3e 4f8a 16be a4fc 75bd 6587 753e
00000110: 685d 16bd 0860 d6bd 8a18 5c3e 5348 533d
00000120: 998c ea3c 058b 75bd 8f7c a1bd a9e8 cb3d
00000130: 53d6 d23d 33a3 1c3d e63b 7b3d 48fd 073e
00000140: dba3 483d ee9b b13d 11fc 743e ffd8 7e3d
00000150: bb21 7d3e 1c2b 85bc d7f8 3d3c 77a3 a93d
00000160: fbbf 48bd d71f 1bbd db03 093d 7a5c 2f3e
00000170: 98f1 5bbc 7089 69be d663 3abe db61 51be
00000180: 467c 96be b3e8 a0be 0d44 c7be ae32 6b3e
00000190: 3b29 81bd a5a0 853d cdcf f7bd 2459 df3c
000001a0: 700c 2cbe ab35 bc3d 18fe 25be 90a9 96bd
000001b0: 974b d8bd 1ded 543d 5eef 17bd fe9c c73d
000001c0: 8f21 0c3e c0a6 34be 8fbb 8fbd 71da d33d
000001d0: b094 8cbe 7723 14be 3d1f a83d a981 50be
000001e0: f69c a9bd 7ddb ecbd c000 d13d 3485 983c
000001f0: 6594 e33c dd40 63be b0fb d63d fa54 0d3e
00000200: 5519 be3d e354 11be 0dc5 b63d 3625 c3bd
00000210: a4fc 513e 105c 853e 1e87 23be 6035 bebd
00000220: 6e20 febd ee29 8d3e 4b19 94bc d8c0 b2bd
00000230: f811 7b3d 4255 85be 352d 57be a087 14bd
00000240: d1a8 963d 7015 213d fc25 cb3d d9bd fcbc
00000250: 7aa2 a83a 95a6 5f3e 432e e7bc d8b3 b9bc
00000260: f72b 9c3e 4154 29be 7d7b 70bd 542b ea3d
00000270: a2f3 31be 1e5d 0abe 594b 4ebd 5224 d53d
00000280: 8428 1bbe 1504 7dbd f844 19bc 99e4 32bd
00000290: b5a0 e03d 11bb b13d ad96 30be fcc7 83be
000002a0: 7293 95be 6028 70be edf1 9dbe a731 253e
000002b0: 7e8b 463e 8c05 293e df72 073e 6991 45bd
000002c0: 450b 26be 62d7 00bd 5219 903d 5540 35bd
000002d0: 8bf4 123e dfa1 34bd 7b5a 323e 2417 943d
000002e0: 89d9 1cbe 836c 3c3e b1cd 89bd 734d 6a3d
000002f0: cd41 b53d 40c9 493e ccf1 9fbd cd64 a43c
00000300: 092c 9bbc 6c26 5ebe a5b7 a3bd 1889 9d3d
00000310: e6d4 e13d 0a19 44be 09f2 0d3e 6d1b 98be
00000320: d9d4 a0be 4ee5 0e3e d7e7 90be 634b 05bd
00000330: 3767 693e c2bc a43d b314 e4be 82d7 d43d
00000340: df90 31bd 23f4 8c3d 0ba1 913d f771 a93d
00000350: 4ab5 2f3c 0f83 5c3e 1fad e7bd 2315 5bbe

conv1.bias f4 [8]
0.0018513891 -0.18337093 -0.45241216 0.09571559 0.123853706 0.3312459 0.20766604 0.0536908
00000000: 4faa f23a 97c5 3bbe 91a2 e7be 8906 c43d
00000010: 03a7 fd3d 1099 a93e 68a6 543e e2ea 5b3d

conv2.weight f4 [16, 8, 3, 3]
-0.1292582 0.31663802 0.06515749 -0.0043442203 0.03998875 -0.17615765 -0.12893255 0.20895083
-0.011785758 0.16303131 0.010523462 0.010999485 0.09715591 -0.037333373 0.006518938 -0.044280812
-0.2315649 -0.072759934 -0.11516188 -0.10274025 0.083874315 -0.1621945 -0.25962463 -0.093082964
-0.08076444 -0.2854327 0.10661942 0.09763176 -0.04445173 -0.21919864 -0.19060613 -0.10863251
-0.2527896 -0.16082382 -0.08314183 0.09686685 -0.13661495 0.110185005 0.14290814 0.11270253
0.15214382 0.13738196 -0.041214954 -0.06927559 0.038736194 -0.40054303 -0.10382148 0.25138485
-0.062182337 -0.07383316 0.20140454 -0.11436032 -0.22517768 0.03814671 0.050318796 -0.0019387779
-0.10957634 -0.091368735 0.022873228 -0.26652962 -0.06673267 -0.12030317 0.02493852 -0.06378065
-0.25319913 0.06037128 0.26082522 -0.0771912 0.06006387 -0.13553128 -0.37455833 -0.078967
0.19563963 0.096879676 -0.039523836 0.17248487 0.00040817115 -0.044722572 -0.019606166 0.15332767
-0.004909213 0.087176494 -0.09578045 -0.0623828 0.09645924 -0.04930756 -0.27510217 0.1772956
-0.09536292 0.07354075 -0.22090875 -0.29282105 -0.06784413 -0.03563041 -0.3356127 -0.008342178
0.013828779 -0.020363623 0.13428257 -0.055617668 -0.14319345 -0.2552396 -0.11418838 -0.24255669
-0.28951576 0.13625333 -0.064320505 0.0534261 0.15222752 0.038694885 -0.09153371 -0.011315512
0.07601015 0.12136563 -0.080033705 -0.02770717 -0.21533565 0.083011635 0.14045738 0.15719074
0.020910762 0.15377335 0.09494523 -0.006503191 0.04993459 -0.15418944 0.030007794 0.20197806
0.08160033 -0.005209339 -0.028546872 -0.20669152 0.11015268 -0.028478714 -0.14109462 -0.07708491
-0.12718962 0.06565199 0.099239916 -0.0693622 -0.061546482 -0.24567632 -0.045902062 0.18264118
-0.08854532 -0.2242865 -0.07456401 -0.09785128 -0.024104139 0.1526153 -0.34350494 0.19847283
0.20213181 0.21595362 0.022482762 0.045805603 0.13916245 0.16148843 0.105541594 0.10782273
0.14512609 0.0011849473 0.12906206 -0.044111855 -0.040728 -0.024315495 -0.041890565 0.07240218
0.19530399 0.059730202 0.07472433 0.0047188164 -0.12472409 -0.25441784 -0.16306998 -0.274374
-0.06003755 -0.103863075 -0.22944959 -0.23591414 0.093649134 -0.11038097 0.0056858757 0.27580386
-0.1163181 -0.023428604 0.11827112 0.16343662 0.038747992 0.09627652 -0.18621075 -0.14543505
0.03731258 0.022332253 -0.18810004 0.01713511 0.072761655 -0.0381711 -0.056876857 -0.024658067
-0.11963268 0.043397065 -0.094761856 -0.041903745 -0.044483557 -0.10691601 0.065155976 -0.0033537606
-0.035575047 -0.0148249 0.23587911 -0.12917912 -0.049923148 0.14392513 0.15701011 -0.3044025
0.055742268 -0.18099432 0.060404718 0.072833866 -0.039205767 -0.007925297 -0.012303826 -0.0121462075
-0.112123534 -0.032180827 0.021508027 -0.021568911 0.14174764 0.11817671 0.1280436 0.11180028
-0.065513276 -0.019117795 -0.052746486 -0.14976251 -0.25733706 -0.025446381 0.11826068 -0.26288015
-0.013624752 0.08686598 0.042614434 0.019449411 -0.14870146 0.10605039 0.13531183 -0.36283585
-0.07027819 -0.018624013 0.041756973 -0.31405714 -0.14660782 0.06918917 0.07984888 -0.099560246
00000000: 435c 04be 611e a23e 4a71 853d f659 8ebb
00000010: 3ecb 233d ac62 34be e506 04be 35f7 553e
00000020: 0d19 41bc aef1 263e 996a 2c3c 2f37 343c
00000030: aef9 c63d e1ea 18bd d19c d53b cc5f 35bd
00000040: 591f 6dbe 2903 95bd fed9 ebbd 7b69 d2bd
00000050: 4cc6 ab3d 5116 26be 85ed 84be 48a2 bebd
00000060: d467 a5bd 3c24 92be 485b da3d 29f3 c73d
00000070: 0413 36bd 9c75 60be 412e 43be b97a debd
00000080: a36d 81be 00af 24be 4446 aabd 2162 c63d
00000090: cae4 0bbe ada8 e13d 8356 123e 96d0 e63d
000000a0: 97cb 1b3e dbad 0c3e 03d1 28bd 5ce0 8dbd
000000b0: d8a9 1e3d fa13 cdbe 5ba0 d4bd 84b5 803e
000000c0: e8b2 7ebd d735 97bd fe3c 4e3e be35 eabd
000000d0: fa94 66be b93f 1c3d 151b 4e3d 971e feba
000000e0: 8f69 e0bd 881f bbbd a360 bb3c 9276 88be
000000f0: 23ab 88bd 8261 f6bd de4b cc3c 6e9f 82bd
00000100: 51a3 81be e047 773d e28a 853e 6b16 9ebd
00000110: 8805 763d b6c8 0abe 1cc6 bfbe 73b9 a1bd
00000120: c155 483e da68 c63d bfe3 21bd e09f 303e
00000130: ceff d539 042f 37bd 1c9d a0bc ee01 1d3e
00000140: 77dd a0bb 9789 b23d 8a28 c4bd 1b85 7fbd
00000150: 6c8c c53d b9f6 49bd 31da 8cbe fa8c 353e
00000160: a24d c3bd 889c 963d e735 62be a4ec 95be
00000170: ddf1 8abd 31f1 11bd 6ed5 abbe a1ad 08bc
00000180: 1a92 623c 9dd1 a6bc 5f81 093e 5acf 63bd
00000190: 4ea1 12be c4ae 82be 99db e9bd c860 78be
000001a0: 693b 94be fe85 0b3e 78ba 83bd 54d5 5a3d
000001b0: 88e1 1b3e 877e 1e3d 0776 bbbd b264 39bc
000001c0: 36ab 9b3d 8b8e f83d b6e8 a3bd 26fa e2bc
000001d0: f380 5cbe 0102 aa3d 0fd4 0f3e 9cf6 203e
000001e0: 0c4d ab3c c376 1d3e a572 c23d b818 d5bb
000001f0: 3688 4c3d d6e3 1dbe e8d2 f53c 56d3 4e3e
00000200: 131e a73d 1ab3 aabb 21db e9bc f1a6 53be
00000210: ba97 e13d 314c e9bc 1c7b 10be b1de 9dbd
00000220: ff3d 02be 8d74 863d 4c3e cb3d c50d 8ebd
00000230: 2a18 7cbd 9392 7bbe cd03 3cbd 4a06 3b3e
00000240: 4057 b5bd 5cab 65be 04b5 98bd 4066 c8bd
00000250: 0b76 c5bc 2f47 1c3e e1df afbe 763c 4b3e
00000260: a4fb 4e3e f222 5d3e c52d b83c a89e 3b3d
00000270: 9a80 0e3e 395d 253e 3126 d83d 2ad2 dc3d
00000280: ef9b 143e 3c50 9b3a d828 043e a2ae 34bd
00000290: 67d2 26bd 4a31 c7bc 7195 2bbd 9847 943d
000002a0: c5fd 473e a8a7 743d 1209 993d 4da0 9a3b
000002b0: 586f ffbd 0e43 82be d1fb 26be c07a 8cbe
000002c0: efe9 75bd 2ab6 d4bd d5f4 6abe 7a93 71be
000002d0: 1ecb bf3d 6b0f e2bd 9550 ba3b 2a36 8d3e
000002e0: 2f38 eebd 58ed bfbc 2138 f23d ee5b 273e
000002f0: 37b6 1e3d a02c c53d 08ae 3ebe edec 14be
00000300: 13d5 183d 21f2 b63c 4c9d 40be ee5e 8c3c
00000310: 1004 953d 4d59 1cbd b5f7 68bd b7ff c9bc
00000320: fb01 f5bd 1fc1 313d 8112 c2bd 43a3 2bbd
00000330: 6434 36bd c8f6 dabd 7f70 853d c4ca 5bbb
00000340: 24b7 11bd 23e4 72bc 4b8a 713e 8847 04be
00000350: 377c 4cbd 1c61 133e 42c7 203e a5da 9bbe
00000360: 0152 643d 9356 39be f06a 773d ec29 953d
00000370: 3a96 20bd 1bd9 01bc fd95 49bc e300 47bc
00000380: 06a1 e5bd 0bd0 03bd 9a31 b03c 49b1 b0bc
00000390: 4b26 113e a206 f23d dd1d 033e 8cf7 e43d
000003a0: d32b 86bd ec9c 9cbc b30c 58bd 585b 19be
000003b0: afc1 83be ee74 d0bc a832 f23d 3a98 86be
000003c0: 5a3a 5fbc cae6 b13d 798c 2e3d 5f54 9f3c
000003d0: 3245 18be f230 d93d 2f8f 0a3e 9fc5 b9be
000003e0: 03ee 8fbd 6391 98bc 5c09 2b3d 19cc a0be
000003f0: 5c20 16be 0db3 8d3d cf87 a33d 3ee6 cbbd

conv2.bias f4 [16]
0.16709891 -0.007579226 -0.1438604 -0.07250456 -0.078951366 -0.09842295 -0.15117812 -0.15516292
0.16395727 -0.03248621 0.103331566 -0.06262363 -0.12833142 -0.0005562769 0.035423115 -0.058672793
00000000: fa1b 2b3e 285b f8bb 2450 13be 457d 94bd
00000010: 41b1 a1bd f991 c9bd 70ce 1abe 07e3 1ebe
00000020: 6ae4 273e 4310 05bd 809f d33d d140 80bd
00000030: 5069 03be 1cd3 11ba d417 113d e252 70bd

conv3.weight f4 [32, 16, 3, 3]
-0.057800494 -0.011588534 0.119359255 -0.15850247 -0.25751057 -0.17350996 -0.1670296 -0.035176862
-0.1745303 -0.1636128 -0.012845412 -0.06274626 -0.18024825 -0.24541391 -0.41893676 -0.109419055
-0.036222994 -0.1637978 -0.43982863 -0.52039963 -0.20072919 -0.34225488 -0.38741016 -0.10439662
-0.058458872 -0.069422714 0.11398107 0.12635195 0.034878425 0.091222614 -0.18275318 -0.3007667
0.022996016 -0.094054416 -0.052864067 0.07166272 0.012986845 0.098341964 0.104316376 -0.080455534
-0.09468739 -0.23706989 -0.17868488 -0.012620634 -0.1332009 -0.28018722 -0.51464736 -0.062130064
-0.02599258 -0.22307691 -0.15410246 0.197609 0.15963827 0.31258208 -0.027044168 0.008248953
0.016390614 0.052001767 0.07954264 0.09834898 0.058627784 0.024077425 -0.015275914 0.193355
0.015251241 -0.03169627 -0.09123968 -0.044273883 0.05206486 -0.11987784 -0.040253 -0.0071062157
-0.1425512 -0.3194195 -0.119290456 -0.36958346 -0.3095057 0.1366434 0.16364819 -0.23195152
0.13954061 -0.31003252 -0.49406663 -0.0037102823 -0.04498554 0.08806743 0.107174955 0.09771226
0.10217767 0.08576691 0.26180682 0.29434064 0.17457438 0.28070748 0.33858246 0.20308118
0.0042290064 0.2895761 0.036552593 0.12614492 0.2071444 0.08592984 0.12896188 0.028544787
0.14700149 0.07788702 -0.03619723 -0.05105826 -0.14657585 -0.23972687 -0.07386689 0.017377054
0.042793483 -0.019499963 -0.0651357 -0.017846365 0.011822407 0.15497297 -0.0054337797 0.013290524
0.23130438 0.14207613 0.15439416 0.08113954 0.060027555 0.00017819552 -0.039606422 0.04439289
0.0013970621 -0.073211595 -0.08510168 0.03239456 0.011025356 -0.035384372 -0.04755259 0.012224751
-0.16158774 -0.04304933 0.09487182 -0.13906626 -0.16440076 -0.02292534 -0.042057537 -0.023339275
-0.060276903 -0.20379704 -0.1642505 -0.19810775 -0.17372519 -0.12640956 -0.22687384 -0.27286568
-0.3058615 0.035050694 -0.12402749 0.061685696 -0.14212914 -0.06533034 -0.076163635 -0.08654061
-0.09755271 -0.040871214 -0.070748664 -0.1930844 -0.09817731 0.0011566903 0.0053614737 -0.16201788
0.032023676 -0.041064847 -0.05538868 -0.05227478 -0.0767917 0.21236877 -0.15058202 0.08891171
0.094471276 -0.02056821 -0.022822736 0.11175438 -0.0140319755 0.12153418 -0.049551345 0.13698271
0.15650006 0.07419019 0.00044775222 0.16695702 0.1199109 -0.015115347 0.032939423 -0.108981766
0.09002375 -0.012332297 -0.019647352 0.32224125 0.1378765 0.10883412 -0.010649558 -0.14870064
-0.04286423 -0.09725455 -0.055645853 0.0016395004 -0.089605585 0.07633766 -0.13434236 -0.06259603
0.034071367 0.07064208 -0.0059001655 -0.040698793 -0.0014163799 0.09358252 0.12573117 0.16047163
-0.35509172 -0.35215396 -0.12259348 -0.14133969 -0.18365255 -0.20693934 -0.109204575 -0.07351975
-0.0340473 -0.15676044 -0.07890165 -0.15218301 0.0024831465 -0.045437478 -0.15637036 0.03330632
-0.089922644 -0.09815642 0.2077822 0.14681576 0.011159678 0.2043273 0.14493155 0.17249195
-0.07433598 0.08401382 0.20936872 -0.117175676 0.015790273 -0.07963442 0.17880155 -0.022497578
0.033884473 -0.1396856 0.13792405 0.013278749 0.09582669 -0.06146053 0.035142083 -0.15910733
00000000: 36c0 6cbd d6dd 3dbc a072 f43d 794e 22be
00000010: 6dd8 83be 98ac 31be cf09 2bbe 9d15 10bd
00000020: 12b8 32be 1d8a 27be 9075 52bc 1c81 80bd
00000030: ff92 38be c94d 7bbe e17e d6be 1917 e0bd
00000040: 905e 14bd 9cba 27be 3831 e1be e938 05bf
00000050: f48b 4dbe 083c afbe a05a c6be e5cd d5bd
00000060: 9272 6fbd 7f2d 8ebd e86e e93d 6862 013e
00000070: aedc 0e3d ecd2 ba3d a623 3bbe 18fe 99be
00000080: 2462 bc3c 9a9f c0bd fe87 58bd e7c3 923d
00000090: c7c6 543c 8367 c93d d3a3 d53d dfc5 a4bd
000000a0: 76eb c1bd 73c2 72be 2bf9 36be c7c6 4ebc
000000b0: d165 08be b374 8fbe eebf 03bf 187c 7ebd
000000c0: 64ee d4bc 466e 64be 09cd 1dbe 045a 4a3e
000000d0: 3778 233e c20a a03e bb8b ddbc 9e26 073c
000000e0: 9c45 863c ceff 543d 40e7 a23d 316b c93d
000000f0: b023 703d 053e c53c d447 7abc dafe 453e
00000100: 57e0 793c f3d3 01bd dfdb babd 8858 35bd
00000110: f641 553d 8382 f5bd 54e0 24bd 42db e8bb
00000120: f1f8 11be f48a a3be 8e4e f4bd 0b3a bdbe
00000130: 8877 9ebe 3fec 0b3e 6493 273e b384 6dbe
00000140: bce3 0e3e 95bc 9ebe 4df6 fcbe 3528 73bb
00000150: c242 38bd b25c b43d 8b7e db3d 5e1d c83d
00000160: 8742 d13d 90a6 af3d 8b0b 863e d1b3 963e
00000170: a0c3 323e e4b8 8f3e ae5a ad3e 83f4 4f3e
00000180: 7a93 8a3b 5243 943e 2cb8 153d 222c 013e
00000190: a91d 543e fcfb af3d 950e 043e c2d6 e93c
000001a0: 8f87 163e 3b83 9f3d 8c43 14bd 7722 51bd
000001b0: fb17 16be f67a 75be 8647 97bd 535a 8e3c
000001c0: 3848 2f3d 63be 9fbc de65 85bd 8a32 92bc
000001d0: c5b2 413c 3cb1 1e3e d90d b2bb 7fc0 593c
000001e0: 0edb 6c3e 687c 113e 8119 1e3e 7d2c a63d
000001f0: 74df 753d ffd9 3a39 583a 22bd 52d5 353d
00000200: a01d b73a f6ef 95bd ca49 aebd 28b0 043d
00000210: b2a3 343c 34ef 10bd 81c6 42bd 524a 483c
00000220: 4277 25be 7f54 30bd 284c c23d 6367 0ebe
00000230: ac58 28be eccd bbbc 8644 2cbd 0232 bfbc
00000240: eae4 76bd 2cb0 50be 4831 28be c2dc 4abe
00000250: 04e5 31be 8271 01be 9e51 68be 0db5 8bbe
00000260: e199 9cbe 5191 0f3d 2002 febd 24aa 7c3d
00000270: 4d8a 11be eacb 85bd aefb 9bbd 343c b1bd
00000280: b7c9 c7bd 9368 27bd ade4 90bd ebb7 45be
00000290: 2f11 c9bd 169c 973a 4daf af3b 04e8 25be
000002a0: 422b 033d 9d33 28bd 3edf 62bd 141e 56bd
000002b0: f844 9dbd 3377 593e 2c32 1abe 5817 b63d
000002c0: 287a c13d aa7e a8bc bff6 babc 7bdf e43d
000002d0: 5fe6 65bc eae6 f83d 5af6 4abd 3245 0c3e
000002e0: 8d41 203e 07f1 973d 49c0 ea39 c8f6 2a3e
000002f0: d993 f53d 5ca6 77bc 7deb 063d d531 dfbd
00000300: 5f5e b83d 670d 4abc 7cf3 a0bc cefc a43e
00000310: 7f2f 0d3e 6ce4 de3d 7c7b 2ebc fb44 18be
00000320: 6792 2fbd 652d c7bd e8ec 63bd 81e4 d63a
00000330: 2283 b7bd eb56 9c3d 0b91 09be 5932 80bd
00000340: 6b8e 0b3d cbac 903d 2d56 c1bb c7b3 26bd
00000350: d3a5 b9ba 31a8 bf3d acbf 003e ad52 243e
00000360: 95ce b5be 864d b4be 4a12 fbbd 5abb 10be
00000370: 6a0f 3cbe e8e7 53be a6a6 dfbd 8691 96bd
00000380: 2f75 0bbd cf85 20be 3097 a1bd ddd5 1bbe
00000390: 49bc 223b a61c 3abd 8d1f 20be 356c 083d
000003a0: 5d29 b8bd 3c06 c9bd dbc4 543e df56 163e
000003b0: 15d7 363c 2d3b 513e f068 143e bba1 303e
000003c0: 763d 98bd 700f ac3d c164 563e cdf9 efbd
000003d0: 9a5a 813c 5f17 a3bd c117 373e d74c b8bc
000003e0: 72ca 0a3d be09 0fbe f63b 0d3e 1c8f 593c
000003f0: c940 c43d 09be 7bbd 25f1 0f3d 08ed 22be

conv3.bias f4 [32]
0.06473207 0.10331291 0.11952303 0.04606438 0.15086162 0.042757303 -0.12472652 0.08628464
-0.08746291 0.097030774 -0.0690779 -0.06885253 -0.087253585 -0.0898879 -0.08440879 0.08546495
0.0838078 -0.030934809 0.10530383 -0.06954398 -0.0084937615 -0.058597647 -0.11638992 -0.09373392
0.13555652 -0.049361605 0.055328757 0.072140366 -0.10442183 -0.064026244 0.093893096 -0.010322691
00000000: 3f92 843d b895 d33d 7ec8 f43d 01ae 3c3d
00000010: 787b 1a3e 4822 2f3d 9e70 ffbd 00b6 b03d
00000020: c11f b3bd 12b8 c63d b778 8dbd 8e02 8dbd
00000030: 02b2 b2bd 2617 b8bd 84de acbd 3f08 af3d
00000040: 6da3 ab3d ff6a fdbc 89a9 d73d 136d 8ebd
00000050: 6b29 0bbc 1604 70bd d75d eebd 92f7 bfbd
00000060: 54cf 0a3e 652f 4abd 68a0 623d 54be 933d
00000070: 1ddb d5bd 3120 83bd 064b c03d 8120 29bc

conv4.weight f4 [64, 32, 3, 3]
-0.08630031 -0.009557261 0.12342718 0.15002723 0.029957626 -0.06744696 0.010304149 -0.007744924
0.019724783 0.06980038 -0.0633264 -0.009862062 0.07990588 -0.085489936 -0.22833739 -0.006864421
-0.18595386 -0.113130346 -0.19204852 -0.025095344 -0.08317289 -0.27553618 0.012068074 0.039824516
-0.2842282 -0.12660979 -0.060131785 -0.033720497 0.009440822 0.21206024 -0.16052201 -0.0055152024
0.093826845 0.07755403 0.055193745 0.1569875 0.0823569 0.045134243 0.08148751 0.04464849
0.012484425 0.029772118 0.0067586377 0.1669942 0.06659763 0.09826069 -0.07333378 -0.026435614
0.01378991 0.0044170967 -0.11162272 0.11911502 0.02396842 -0.09026395 0.1662747 -0.1238893
0.109523065 0.027454905 -0.13485153 0.021376003 0.036810696 0.07409454 -0.10494445 0.044014227
-0.10846665 0.03595481 -0.2578362 -0.27111933 -0.1628668 -0.013869669 -0.10178083 -0.17534044
-0.11390064 0.0738507 0.023584666 0.036829665 0.019177696 -0.085261635 -0.008631 -0.10054119
0.08133722 0.029903466 0.099097125 0.0043914295 0.076701 -0.023073956 0.037152298 0.098063104
0.03296932 0.16866454 0.07516793 -0.04620433 -0.042167958 0.023342166 -0.04093212 -0.010772073
-0.011585412 0.060781423 0.037200112 0.06149212 -0.023613567 0.1114145 0.16094764 0.055521484
0.14346468 0.13510484 0.07220177 0.090190254 0.037561122 -0.02802691 0.023342853 -0.04699984
0.0048298375 -0.033667054 0.042632557 0.03722026 -0.04942659 -0.011820118 0.06962455 -0.016724681
0.01558984 -0.028601047 0.076825865 -0.015678063 -0.017036183 0.048700858 0.03935836 -0.013050181
-0.027287398 -0.10338787 -0.079526655 -0.092335045 -0.14907163 -0.11102237 -0.16150264 -0.12971097
-0.09226894 0.13979514 -0.17535748 -0.013256369 0.0051957034 0.13895194 0.029507384 -0.21373713
-0.09912738 -0.13742115 -0.0926605 -0.16871081 0.038999163 -0.12702727 -0.16963474 -0.04173622
-0.08406297 0.12086743 0.11302623 0.029728733 0.062405705 0.07499191 -0.012890764 0.052139003
-0.03613681 0.065283924 0.15390596 0.3179683 0.35317838 0.11292781 0.08480627 0.12845396
0.27616075 0.09254083 0.18999498 0.006924422 0.011882249 0.0129755745 -0.049689855 0.013212059
-0.0029413025 0.0068145073 -0.00800898 -0.026751129 0.06107676 0.12044644 -0.052221004 0.09253803
0.001630261 0.07374258 0.11917347 0.00685601 0.059490446 -0.044790708 0.05115908 0.016792027
0.052087564 0.013002123 0.04567533 0.06961248 0.038573645 -0.008466351 -0.04944513 0.013674461
-0.050243333 0.019156467 -0.006385563 -0.096517056 0.039324444 -0.027976321 0.12206498 0.022066426
0.08882136 0.26547578 0.18293363 0.18370867 0.06407727 0.0022067572 0.08778779 0.20438112
-0.031174447 -0.105086505 -0.036416143 0.07537567 0.05026594 0.024147782 -0.12709455 -0.0058976687
-0.04259876 0.13805738 -0.002926702 0.0755103 0.06252146 0.09704501 0.0525517 0.056728877
0.07080318 0.09244987 0.0052574207 0.01580333 -0.18872006 -0.029980551 -0.08118315 -0.098360024
-0.030880392 -0.008374778 -0.08426659 0.017063709 0.062810324 -0.027321197 -0.000912747 0.012910165
-0.06092755 0.056590073 0.089693055 0.03957289 0.0043584015 -0.051267687 -0.121798836 -0.03345341
00000000: 38be b0bd 0f96 1cbc 64c7 fc3d bda0 193e
00000010: b269 f53c a221 8abd bcd2 283c 22c9 fdbb
00000020: de95 a13c 80f3 8e3d 46b1 81bd 7c94 21bc
00000030: b2a5 a33d 5915 afbd 47d1 69be f0ee e0bb
00000040: b06a 3ebe e2b0 e7bd 5ea8 44be c094 cdbc
00000050: 8c56 aabd 1413 8dbe 2cb9 453c 081f 233d
00000060: 5c86 91be ffa5 01be bf4c 76bd 811e 0abd
00000070: adad 1a3c 5226 593e e25f 24be dfb8 b4bb
00000080: 4a28 c03d a6d4 9e3d d612 623d 55c1 203e
00000090: bcaa a83d afde 383d ece2 a63d 56e1 363d
000000a0: 798b 4c3c a8e4 f33c 9077 dd3b 8700 2b3e
000000b0: 5764 883d e73c c93d 0530 96bd 808f d8bc
000000c0: 13ef 613c 4bbd 903b 749a e4bd 93f2 f33d
000000d0: 6c59 c43c 4edc b8bd ea43 2a3e acb9 fdbd
000000e0: a14d e03d 1ce9 e03c 8516 0abe ba1c af3c
000000f0: d0c6 163d e1be 973d 1eed d6bd 4348 343d
00000100: c323 debd 5a45 133d 1b03 84be 27d0 8abe
00000110: 8ec6 26be 9c3d 63bc 7872 d0bd 728c 33be
00000120: bd44 e9bd 093f 973d a134 c13c b4da 163d
00000130: 8b1a 9d3c a79d aebd 0a69 0dbc 8ae8 cdbd
00000140: 2194 a63d 1df8 f43c 6ff3 ca3d fbe5 8f3b
00000150: 6a15 9d3d 9805 bdbc 022d 183d 4fd5 c83d
00000160: d60a 073d 66b6 2c3e a5f1 993d c040 3dbd
00000170: 4fb8 2cbd 1238 bf3c 70a8 27bd 597d 30bc
00000180: bdd0 3dbc f1f5 783d 255f 183d 29df 7b3d
00000190: 3d71 c1bc 492d e43d 75cf 243e 7f6a 633d
000001a0: 68e8 123e ec58 0a3e 86de 933d abb5 b83d
000001b0: b1d9 193d b198 e5bc 8339 bf3c e782 40bd
000001c0: 9d43 9e3b 77e6 09bd 7a9f 2e3d 4574 183d
000001d0: 8973 4abd 2ba9 41bc 5197 8e3d 3302 89bc
000001e0: 876c 7f3c be4c eabc e156 9d3d 486f 80bc
000001f0: 778f 8bbc 8d7a 473d 3b36 213d 6dd0 55bc
00000200: d289 dfbc 05bd d3bd dfde a2bd 281a bdbd
00000210: 3ca6 18be b25f e3bd f360 25be f4d2 04be
00000220: 7ff7 bcbd 7526 0f3e e990 33be 3e31 59bc
00000230: b840 aa3b 6b49 0e3e 78b9 f13c e8dd 5abe
00000240: 4c03 cbbd 21b8 0cbe cac4 bdbd 87c2 2cbe
00000250: 96bd 1f3d 7013 02be bbb4 2dbe 99f3 2abd
00000260: 3529 acbd 5889 f73d 4c7a e73d ac89 f33c
00000270: 209d 7f3d 5c95 993d c833 53bc b58f 553d
00000280: 3104 14bd 94b3 853d 8699 1d3e becc a23e
00000290: ccd3 b43e b246 e73d e9ae ad3d 6f89 033e
000002a0: f164 8d3e 0c86 bd3d 0b8e 423e 43e6 e23b
000002b0: c4ad 423c 8197 543c 9787 4bbd 6477 583c
000002c0: dec2 40bb 3b4c df3b 1938 03bc 2f25 dbbc
000002d0: a02b 7a3d a0ac f63d b1e5 55bd 9484 bd3d
000002e0: 7bae d53a 5a06 973d 3811 f43d 61a8 e03b
000002f0: 41ac 733d 7676 37bd 2f8c 513d 6f8f 893c
00000300: c559 553d db06 553c 0e16 3b3d fd90 8e3d
00000310: 66ff 1d3d 73b6 0abc fa86 4abd d90a 603c
00000320: f4cb 4dbd 06ee 9c3c fc3d d1bb bcaa c5bd
00000330: ab12 213d 992e e5bc 34fd f93d a6c4 b43c
00000340: f9e7 b53d 71ec 873e f452 3b3e 201e 3c3e
00000350: f23a 833d 3e9f 103b 16ca b33d 4949 513e
00000360: 8e61 ffbc 9837 d7bd 1829 15bd 8f5e 9a3d
00000370: a9e3 4d3d 92d1 c53c 1325 02be 3b41 c1bb
00000380: 0a7c 2ebd ea5e 0d3e e9cd 3fbb 25a5 9a3d
00000390: 400b 803d 89bf c63d 7440 573d 8a5c 683d
000003a0: 4201 913d 5c56 bd3d 7146 ac3b fc75 813c
000003b0: d53f 41be c699 f5bc 5a43 a6bd fb70 c9bd
000003c0: e0f8 fcbc 5d36 09bc f693 acbd 31c9 8b3c
000003d0: b3a2 803d b4d0 dfbc 6a45 6fba 2885 533c
000003e0: 2b8f 79bd feca 673d feb0 b73d 2f17 223d
000003f0: ecd0 8e3b 11fe 51bd ab71 f9bd 7106 09bd

conv4.bias f4 [64]
-0.07647785 0.08885353 -0.023019062 0.053443536 -0.12344338 -0.10149581 -0.004593467 -0.00466191
-0.068639494 -0.058637675 0.02627175 -0.13931331 -0.08844588 0.040428113 -0.05516516 -0.05131834
-0.008791128 -0.075574145 -0.094300434 0.054520328 -0.08616205 -0.040345505 -0.00079621386 -0.17935486
0.013195964 0.01010251 -0.11543819 -0.07031773 -0.038217813 -0.032286566 0.024154862 -0.045040593
0.024989478 0.03000099 -0.08507113 -0.053709004 -0.08496746 0.048592832 0.0027765713 0.018127434
-0.05884166 -0.044452574 -0.10204022 0.044129077 0.035350665 -0.031254157 0.051222518 -0.06821015
-0.02330876 0.10564942 0.0046389326 -0.064177886 -0.09456842 -0.06940808 -0.03477802 -2.5126537e-05
0.049946737 0.05761374 0.02421318 -0.06394894 0.022903964 -0.046654675 -0.051281385 -0.010545724
00000000: 6ba0 9cbd d7f8 b53d 7992 bcbc 9ce7 5a3d
00000010: e2cf fcbd 09dd cfbd cb84 96bb efc2 98bb
00000020: dd92 8cbd 0f2e 70bd da37 d73c 26a8 0ebe
00000030: 1d23 b5bd f397 253d ddf4 61bd 2e33 52bd
00000040: aa08 10bc 9ec6 9abd 9620 c1bd b550 5f3d
00000050: bb75 b0bd 5441 25bd 02b9 50ba cda8 37be
00000060: e233 583c 0085 253c dc6a ecbd be02 90bd
00000070: 488a 1cbd eb3e 04bd 6be0 c53c 7c7c 38bd
00000080: bcb6 cc3c a3c4 f53c c639 aebd f9fd 5bbd
00000090: 6b03 aebd 4709 473d 23f7 353b fc7f 943c
000000a0: f403 71bd e713 36bd 76fa d0bd b1c0 343d
000000b0: dccb 103d 5c04 00bd b4ce 513d c3b1 8bbd
000000c0: 03f2 bebc b95e d83d 3002 983b b26f 83bd
000000d0: 16ad c1bd d325 8ebd 6673 0ebd d4c6 d2b7
000000e0: f394 4c3d 63fc 6b3d b85a c63c a9f7 82bd
000000f0: 18a1 bb3c f918 3fbd 6e0c 52bd f9c7 2cbc

fc1.weight f4 [100, 1024]
0.017262235 -0.018786993 -0.0037534493 -0.005133935 -0.03621206 0.010647301 -0.02084102 0.01126555
-0.008780271 0.018376801 -0.018037653 -0.032344688 0.0015776902 -0.011994566 -0.025050983 0.009728702
-0.025972106 -0.019569496 0.013268214 0.022542847 -0.02291157 0.010248184 0.024493026 0.0009963148
0.016800169 0.016473347 -0.008955106 0.014061376 0.013137504 0.018411977 0.018754926 0.016947465
-0.005795359 -0.003477056 -0.0021286039 -0.04161579 -0.031359885 -0.021710081 -0.024784138 0.0015592852
0.0052443044 0.005565698 0.005716895 0.014487207 -0.013576924 -0.024670698 0.0016367851 -0.014643261
0.012917705 -0.0036617257 -0.014704062 -0.0023549534 0.0080304425 -0.009615518 -0.0017290711 0.014721185
-0.017274208 -0.0016322285 -0.0059398115 0.007949557 -0.020644825 0.029512418 0.0007399954 -0.013050759
0.003525427 0.012935821 -0.011893519 -0.027811129 0.015400301 -0.012145918 -0.027333101 0.014176973
0.0020765245 0.016778897 -0.027819706 -0.034106582 -0.025474934 -0.010268655 0.008096073 -0.009778379
-0.0067366273 -0.0017923596 -0.026619941 0.022840636 -0.02285413 -0.025282085 -0.031016998 0.01697094
-0.00072140794 0.009868089 -0.010306775 -0.023020042 -0.016215526 0.02672606 -0.024101712 0.018350987
-0.03596533 -0.037842717 -0.031608224 -0.016312728 -0.00062363327 -0.015490347 -0.031586867 0.0040318174
-0.018937783 -0.008186911 -0.018065298 -0.01136387 -0.006136295 -0.013416107 0.01582713 -0.032045342
0.014266869 -0.0024059576 0.024965119 -0.0124968905 0.0020645896 0.023187984 0.008766436 -0.028648475
0.024035428 0.027063588 0.004266325 -0.016092584 -0.010127388 0.0019541597 0.017754782 0.024099011
-0.00051895157 0.015462168 -0.021298006 -0.00601086 0.013068099 0.01302189 0.0010852404 -0.028889462
-0.028763812 0.011377621 -0.021527983 0.008503705 0.017532095 -0.015590955 0.0070686527 -0.000909213
0.013357123 -0.009300131 -0.027079856 -0.02445077 -0.0043175872 -0.030853322 -0.0059017716 0.0048803976
-0.04234284 -0.027421018 -0.00019752882 0.008898124 0.0011572995 0.018248234 0.0010254636 0.013950972
0.018249577 0.004466202 -0.036468003 -0.002326617 -0.025412085 0.008039161 -0.042293493 -0.013414765
0.013718799 -0.014296657 -0.003362515 -0.010009983 -0.027875654 -0.038472958 -0.016159102 -0.039757688
-0.015114391 -0.0138846 -0.0105397245 0.014470991 0.017485846 0.0040577995 -0.00081363117 0.0047292737
0.018454332 -0.013948152 0.008307461 0.019325936 -0.032653112 0.020463001 0.010710356 0.0092471475
0.026501562 0.005313251 -0.003998045 -0.013560023 0.027065389 -0.018305037 -0.029010344 -0.011203393
-0.006783318 0.029681839 -0.0137540065 0.006682031 -0.020944078 -0.017944675 -0.010593038 -0.030132543
0.0018359232 -0.026581204 -0.032633513 -0.01862675 -0.016212877 -0.0425085 0.011856684 0.015961327
0.0046320786 -0.037703976 0.008028351 -0.031079248 -0.0038322115 0.0073910155 0.002721454 -0.01864832
0.021313135 0.004749801 0.0084547065 -0.0025555342 -0.010016277 -0.024710491 -0.025914062 -0.027262315
0.019432023 0.0036557056 -0.019065827 -0.008389354 0.0074960105 0.012401365 0.011315968 0.015539903
0.00016807625 -0.013487886 -0.022663733 -0.042822167 0.015116042 0.0005151931 -0.03898869 -0.028380066
-0.03823314 -0.02713819 0.017949207 0.006399688 0.0073273485 -0.004186843 -0.024451902 -0.03296878
00000000: 8869 8d3c 2ee7 99bc 6efc 75bb 913a a8bb
00000010: 1953 14bd 0472 2e3c c9ba aabc 2493 383c
00000020: 20db 0fbc f28a 963c b3c3 93bc dd7b 04bd
00000030: 80ca ce3a db84 44bc b837 cdbc 2265 1f3c
00000040: 74c3 d4bc 3550 a0bc ec62 593c c7ab b83c
00000050: 0bb1 bbbc 00e8 273c 99a5 c83c c796 823a
00000060: 82a0 893c 1df3 863c 70b8 12bc b061 663c
00000070: b03e 573c b7d4 963c eea3 993c 69d5 8a3c
00000080: ffe6 bdbb 52df 63bb 0c80 0bbb 5275 2abd
00000090: 3973 00bd 57d9 b1bc 1b08 cbbc ee60 cc3a
000000a0: 6ad8 ab3b 7560 b63b cb54 bb3b c05b 6d3c
000000b0: bf71 5ebc 341a cabc 6589 d63a 4aea 6fbc
000000c0: c8a4 533c 90f9 6fbb 4ee9 70bc 9055 1abb
000000d0: 1e92 033c 688a 1dbc 00a2 e2ba 2031 713c
000000e0: a482 8dbc 80f0 d5ba c0a2 c2bb dc3e 023c
000000f0: 561f a9bc 07c4 f13c 40fc 413a dad2 55bc
00000100: da0a 673b c4f0 533c 09dd 42bc 2ad4 e3bc
00000110: 8b51 7c3c acff 46bc abe9 dfbc 8946 683c
00000120: 4d16 083b e673 893c 27e6 e3bc 58b3 0bbd
00000130: cfb0 d0bc dc3d 28bc 64a5 043c 7f35 20bc
00000140: edbe dcbb 9ced eaba 1012 dabc 491c bb3c
00000150: 9638 bbbc 601c cfbc 5c17 febc a406 8b3c
00000160: de1c 3dba c4ad 213c bfdd 28bc 8794 bcbc
00000170: 6cd6 84bc 9cf0 da3c f470 c5bc cf54 963c
00000180: 6250 13bd f700 1bbd a077 01bd 45a2 85bc
00000190: 527b 23ba 39cb 7dbc 3b61 01bd 561d 843b
000001a0: 6923 9bbc 6522 06bc adfd 93bc 872f 3abc
000001b0: f912 c9bb 3bcf 5bbc e6a7 813c fa41 03bd
000001c0: 96bf 693c 45ad 1dbb a683 cc3c c2bf 4cbc
000001d0: 114e 073b baf4 bd3c 19a1 0f3c 35b0 eabc
000001e0: f2e5 c43c 75b4 dd3c 87cc 8b3b 98d4 83bc
000001f0: 58ed 25bc 5c11 003b 7a72 913c 4a6b c53c
00000200: 400a 08ba 0855 7d3c 2879 aebc c0f6 c4bb
00000210: 941b 563c c459 553c a03e 8e3a 98a9 ecbc
00000220: 16a2 ebbc 3469 3a3c 745b b0bc 2053 0b3c
00000230: 789f 8f3c 3471 7fbc 28a0 e73b 4058 6eba
00000240: d6d7 5a3c 945f 18bc 93d6 ddbc fb4c c8bc
00000250: 8c7a 8dbb 1bc0 fcbc a663 c1bb beeb 9f3b
00000260: b06f 2dbd 0ba2 e0bc bd1f 4fb9 70c9 113c
00000270: 87b0 973a 527d 953c d968 863a 9e92 643c
00000280: 2380 953c 3859 923b 795f 15bd 287a 18bb
00000290: 012d d0bc afb6 033c f13b 2dbd 9ac9 5bbc
000002a0: d0c4 603c 873c 6abc a45d 5cbb e900 24bc
000002b0: 7c5b e4bc d295 1dbd 1860 84bc f5d8 22bd
000002c0: 5aa2 77bc 3c7c 63bc cfae 2cbc bc17 6d3c
000002d0: 7a3e 8f3c 4af7 843b dd49 55ba 06f8 9a3b
000002e0: 8a2d 973c ca86 64bc 041c 083c 6d51 9e3c
000002f0: 45bf 05bd 06a2 a73c 7d7a 2f3c 5981 173c
00000300: ce19 d93c c81a ae3b 0802 83bb dc2a 5ebc
00000310: 3cb8 dd3c 72f4 95bc 1aa7 edbc 708e 37bc
00000320: 9846 debb 5427 f33c 7c58 61bc f0f4 da3b
00000330: ea92 abbc b600 93bc 6c8e 2dbc 86d8 f6bc
00000340: 5ca3 f03a d3c0 d9bc b8aa 05bd 2097 98bc
00000350: ded0 84bc 651d 2ebd 8a42 423c 54c1 823c
00000360: b1c8 973b 7c6f 1abd 5889 033c e899 febc
00000370: d725 7bbb 5530 f23b 6c5a 323b 5dc4 98bc
00000380: e298 ae3c 38a4 9b3b 9c85 0a3c c07a 27bb
00000390: 501b 24bc a86d cabc ba49 d4bc 3855 dfbc
000003a0: e82f 9f3c 9094 6f3b f02f 9cbc 8073 09bc
000003b0: 18a1 f53b 182f 4b3c 9c66 393c 149b 7e3c
000003c0: a03d 3039 4bfc 5cbc 4ba9 b9bc 4c66 2fbd
000003d0: 47a9 773c 060e 073a 9bb2 1fbd 507d e8bc
000003e0: 5a9a 1cbd e950 debc 370a 933c 79b4 d13b
000003f0: 411a f03b c931 89bb 5b4f c8bc 450a 07bd

fc1.bias f4 [100]
-0.01844991 -0.012080412 0.067188054 -0.001877707 0.09965105 0.080008455 -0.0009011426 0.041740943
-0.011445478 0.052008808 0.03498046 -0.016630458 0.08880594 0.12379907 0.06073522 -0.02283636
-0.037608866 -0.014791534 0.065563366 -0.045213096 -0.040717848 0.080918565 -0.018493718 -0.0077840537
0.027938452 -0.0074088536 -0.032894947 -0.017095795 0.05891872 -0.017876385 0.071342416 0.019344969
-0.015991246 -0.004476237 -0.0076206382 -0.059860904 0.07945003 0.0471114 -0.090041064 0.007458019
0.07214649 -0.009619651 0.010505319 0.05694441 -0.005486416 -0.021286855 -0.002786432 -0.012747305
0.017379614 -0.024861759 0.13480702 -0.015517203 -0.02089446 -0.0048222938 0.07724575 -0.059410103
0.019658644 -0.034082152 0.026089849 0.09549328 0.06598855 0.033236306 -0.009741482 0.04969079
0.102933645 0.0044216122 -0.038752507 0.07980198 -0.022682969 -0.00037045428 -0.052306462 0.010124953
0.0802466 0.042221796 -0.032279074 -0.02662971 0.08416045 -0.032543555 -0.030542402 -0.01800838
0.009147183 -0.021959646 -0.03270615 0.017408106 0.07780906 -0.0006878764 -0.0028604325 0.033187345
0.06834556 0.023396986 0.11065136 -0.006343041 0.06883413 -0.0093030725 -0.026768705 0.10772016
-0.012926269 0.10662858 -0.015900033 -0.0053072735
00000000: 4424 97bc ecec 45bc e499 893d 641d f6ba
00000010: da15 cc3d 79db a33d a83a 6cba 8df8 2a3d
00000020: d085 3bbc 3007 553d ac47 0f3d 993c 88bc
00000030: e3df b53d 5e8a fd3d 7ec5 783d 5113 bbbc
00000040: c10b 1abd 3158 72bc 1646 863d 5e31 39bd
00000050: c2c7 26bd a2b8 a53d 2380 97bc 6011 ffbb
00000060: 2edf e43c f8c5 f2bb dabc 06bd 7b0c 8cbc
00000070: c154 713d 7f71 92bc f91b 923d 5779 9e3c
00000080: 1300 83bc 66ad 92bb 8cb6 f9bb b530 75bd
00000090: b3b6 a23d e2f7 403d 7367 b8bd 6662 f43b
000000a0: 8ac1 933d be9b 1dbc 801e 2c3c 8b3e 693d
000000b0: 65c7 b3bb c561 aebc 929c 36bb 13da 50bc
000000c0: b15f 8e3c e3aa cbbc da0a 0a3e de3b 7ebc
000000d0: dc2a abbc 5504 9ebb 0533 9e3d 0258 73bd
000000e0: 2a0b a13c ba99 0bbd 61ba d53c fb91 c33d
000000f0: 0125 873d cb22 083d bd9a 1fbc 9288 4b3d
00000100: e0ce d23d 2ce3 903b f3ba 1ebd 386f a33d
00000110: a2d1 b9bc 8839 c2b9 4d3f 56bd 22e3 253c
00000120: 5458 a43d c3f0 2c3d 1037 04bd 8d26 dabc
00000130: 505c ac3d 644c 05bd 0f34 fabc 4f86 93bc
00000140: 11de 153c b7e4 b3bc e2f6 05bd 729b 8e3c
00000150: 5b5a 9f3d 9b52 34ba 1876 3bbb 74ef 073d
00000160: c2f8 8b3d 09ab bf3c 2e9d e23d 49d9 cfbb
00000170: e9f8 8c3d ea6b 18bc 0b4a dbbc 639c dc3d
00000180: b4c8 53bc 1660 da3d c940 82bc a3e8 adbb

fc2.weight f4 [2, 100]
-0.060305916 -0.066215456 0.2747032 -0.23961687 0.23891559 0.27418295 -0.008194476 -0.5619869
-0.006120853 0.30141485 0.27304652 -0.33709487 0.16500175 0.2578112 0.25485176 -0.08358091
-0.043603048 -0.013380111 0.19907981 -0.044862125 -0.012155695 -0.32389793 0.02985497 0.11739007
0.5075023 -0.36598897 -0.29398236 -0.5326714 0.24221988 -0.047221445 -0.34714502 -0.4176065
-0.047196154 -0.21947807 0.077921756 -0.36215314 0.25482154 0.21135646 0.09370924 0.6349284
0.17491959 -0.061598737 0.80801255 0.19280648 -0.06914892 0.046023503 -0.18943459 0.005814057
-0.63178444 0.028807929 -0.5349698 -0.055193633 0.052131716 -0.08551648 0.2135784 0.19161072
-0.2568493 -0.084224604 -0.42914063 -0.49089542 0.2402694 0.17625181 0.046718426 0.33736977
0.35555992 -0.04286909 -0.013646172 0.2145081 -0.022357872 -0.06306494 0.3705558 -0.36954847
0.44826987 -0.34335837 0.05827598 0.10373359 0.26435837 0.000410918 -0.42516068 -0.0021585478
0.5485449 0.063805945 -0.073965944 0.08241184 0.28444725 -0.0690368 0.018847192 -0.30519116
-0.74117833 0.1749964 0.28784668 -0.08204008 0.20719685 0.050017234 0.06521666 -0.5231001
-0.03752096 0.19602373 0.052485198 0.41614014 -0.062836975 -0.015704282 -0.2661191 0.3607079
-0.20728633 -0.25905576 0.024233392 0.6900813 0.05761495 -0.25107732 -0.10788936 0.38667417
-0.25328943 -0.25938505 -0.12569968 0.075013496 0.075576186 0.043943554 -0.18485579 0.05234346
0.057088457 0.41521132 0.06835203 -0.21576601 -0.61147815 0.35365957 0.32188222 0.49747992
-0.17665242 0.06618648 0.4411265 0.4889803 -0.06794237 0.33524927 -0.07596508 0.4610908
-0.24669121 -0.21610284 -0.07482972 -0.4905252 -0.24077998 0.01538334 -0.8027614 -0.33911106
-0.07718535 0.037100226 0.28067687 0.0032353986 0.5188283 -0.045732506 0.54264367 -0.02409188
0.07805041 -0.017720828 -0.1426103 -0.20689021 0.31592938 0.034595348 0.44194546 0.53660226
-0.3310604 -0.26515952 -0.02492671 -0.14347926 -0.1920354 0.06208479 0.08782304 -0.20136361
0.08798921 0.059688427 -0.29795158 0.3411623 -0.5109238 0.29122674 -0.017268581 0.0566898
-0.18267404 0.04748039 0.50518984 0.018672988 -0.5043742 0.060266 -0.04062031 -0.14175184
-0.14313918 -0.033498146 -0.010269504 0.35934672 0.7157844 -0.18625186 -0.28086302 -0.058593478
-0.27597848 0.045217745 -0.013031155 0.3771315 0.07578588 -0.26245624 -0.029069977 -0.3524035
00000000: 5603 77bd f89b 87bd e6a5 8c3e 205e 75be
00000010: 4aa6 743e b561 8c3e 2042 06bc 60de 0fbf
00000020: 7091 c8bb 0c53 9a3e c1cc 8b3e b397 acbe
00000030: 38f6 283e d4ff 833e ee7b 823e 782c abbd
00000040: 1c99 32bd 4138 5bbc 94db 4b3e 59c1 37bd
00000050: ae28 47bc f3d5 a5be 6992 f43c 346a f03d
00000060: aceb 013f e862 bbbe db84 96be 275d 08bf
00000070: 7d08 783e 466b 41bd febc b1be 85d0 d5be
00000080: c150 41bd dcbe 60be 7195 9f3d 236c b9be
00000090: f877 823e d46d 583e a1ea bf3d ab8a 223f
000000a0: 1f1e 333e f54e 7cbd e9d9 4e3f 106f 453e
000000b0: f39d 8dbd 2483 3c3d 24fb 41be d883 be3b
000000c0: a0bc 21bf 9bfe eb3c c8f3 08bf b812 62bd
000000d0: 1188 553d 4423 afbd 4cb4 5a3e 9a35 443e
000000e0: c081 83be f37d acbd 52b8 dbbe a556 fbbe
000000f0: 2e09 763e 5b7b 343e d25b 3f3d bbbb ac3e
00000100: f30b b63e 8097 2fbd 3294 5fbc 03a8 5b3e
00000110: db27 b7bc 3128 81bd 7db9 bd3e 7535 bdbe
00000120: a183 e53e abcc afbe cbb2 6e3d 4772 d43d
00000130: fb59 873e 7b70 d739 a9ae d9be 6c76 0dbb
00000140: 706d 0c3f b1ac 823d 757b 97bd 8ac7 a83d
00000150: 12a3 913e 2a63 8dbd 6d65 9a3c 0442 9cbe
00000160: ddbd 3dbf 4232 333e a460 933e a104 a8bd
00000170: 692b 543e dfde 4c3d 5090 853d e3e9 05bf
00000180: 94af 19bd 72ba 483e b8fa 563d 5210 d53e
00000190: acb0 80bd 44a6 80bc c340 88be b5ae b83e
000001a0: de42 54be f5a2 84be 1b85 c63c 2ba9 303f
000001b0: a7fd 6b3d 358d 80be 19f5 dcbd 28fa c53e
000001c0: 27af 81be 1ece 84be 6bb7 00be ada0 993d
000001d0: b0c7 9a3d 28fe 333d d64a 3dbe 1966 563d
000001e0: 96d5 693d 9496 d43e 26fc 8b3d c4f1 5cbe
000001f0: d589 1cbf de12 b53e bfcd a43e b0b5 fe3e
00000200: 5fe4 34be c78c 873d 55db e13e a05b fa3e
00000210: 5f25 8bbd cba5 ab3e 9493 9bbd 1814 ec3e
00000220: 9f9c 7cbe 104a 5dbe 5340 99bd 1e26 fbbe
00000230: 078f 76be 680a 7c3c c581 4dbf f79f adbe
00000240: 5a13 9ebd 68f6 173d e1b4 8f3e fb08 543b
00000250: eed1 043f 0252 3bbd b2ea 0a3f 565c c5bc
00000260: e5d8 9f3d 452b 91bc 6f08 12be 07db 53be
00000270: 7fc1 a13e dab3 0d3d ad46 e23e c45e 093f
00000280: c080 a9be fdc2 87be 1a33 ccbc 3aec 12be
00000290: eea4 44be 9f4c 7e3d 91dc b33d 4332 4ebe
000002a0: b033 b43d da7b 743d 1c8d 98be d3ac ae3e
000002b0: e7cb 02bf ac1b 953e d776 8dbc 9033 683d
000002c0: e70e 3bbe cc7a 423d 1f54 013f 18f8 983c
000002d0: ab1e 01bf 7bd9 763d 7b61 26bd 6527 11be
000002e0: 1493 12be 5a35 09bd 6c41 28bc 4bfc b73e
000002f0: a53d 373f cfb8 3ebe 47cd 8fbe b7ff 6fbd
00000300: 0d4d 8dbe 3e36 393d a080 55bc 6117 c13e
00000310: a135 9b3d aa60 86be 2924 eebc 3b6e b4be

fc2.bias f4 [2]
-0.04635278 0.022213168
00000000: 6adc 3dbd 64f8 b53c
